…
            "2023-10-15 12:33:05.415323: I tensorflow/core/platform/cpu_feature_guard.cc:182] This TensorFlow binary is optimized to use available CPU instructions in performance-critical operations.\n",
            "To enable the following instructions: AVX2 AVX512F FMA, in other operations, rebuild TensorFlow with the appropriate compiler flags.\n",
            "2023-10-15 12:33:06.267919: W tensorflow/compiler/tf2tensorrt/utils/py_utils.cc:38] TF-TRT Warning: Could not find TensorRT\n",
            "Overriding model.yaml nc=80 with nc=7\n",
            "\n",
            "                   from  n    params  module                                       arguments                     \n",
            "  0                  -1  1      2320  ultralytics.nn.modules.Conv                  [3, 80, 3, 2]                 \n",
            "  1                  -1  1    115520  ultralytics.nn.modules.Conv                  [80, 160, 3, 2]               \n",
            "  2                  -1  3    436800  ultralytics.nn.modules.C2f                   [160, 160, 3, True]           \n",
            "  3                  -1  1    461440  ultralytics.nn.modules.Conv                  [160, 320, 3, 2]              \n",
            "  4                  -1  6   3281920  ultralytics.nn.modules.C2f                   [320, 320, 6, True]           \n",
            "  5                  -1  1   1844480  ultralytics.nn.modules.Conv                  [320, 640, 3, 2]              \n",
            "  6                  -1  6  13117440  ultralytics.nn.modules.C2f                   [640, 640, 6, True]           \n",
            "  7                  -1  1   3687680  ultralytics.nn.modules.Conv                  [640, 640, 3, 2]              \n",
            "  8                  -1  3   6969600  ultralytics.nn.modules.C2f                   [640, 640, 3, True]           \n",
            "  9                  -1  1   1025920  ultralytics.nn.modules.SPPF                  [640, 640, 5]                 \n",
            " 10                  -1  1         0  torch.nn.modules.upsampling.Upsample         [None, 2, 'nearest']          \n",
            " 11             [-1, 6]  1         0  ultralytics.nn.modules.Concat                [1]                           \n",
            " 12                  -1  3   7379200  ultralytics.nn.modules.C2f                   [1280, 640, 3]                \n",
            " 13                  -1  1         0  torch.nn.modules.upsampling.Upsample         [None, 2, 'nearest']          \n",
            " 14             [-1, 4]  1         0  ultralytics.nn.modules.Concat                [1]                           \n",
            " 15                  -1  3   1948800  ultralytics.nn.modules.C2f                   [960, 320, 3]                 \n",
            " 16                  -1  1    922240  ultralytics.nn.modules.Conv                  [320, 320, 3, 2]              \n",
            " 17            [-1, 12]  1         0  ultralytics.nn.modules.Concat                [1]                           \n",
            " 18                  -1  3   7174400  ultralytics.nn.modules.C2f                   [960, 640, 3]                 \n",
            " 19                  -1  1   3687680  ultralytics.nn.modules.Conv                  [640, 640, 3, 2]              \n",
            " 20             [-1, 9]  1         0  ultralytics.nn.modules.Concat                [1]                           \n",
            " 21                  -1  3   7379200  ultralytics.nn.modules.C2f                   [1280, 640, 3]                \n",
            " 22        [15, 18, 21]  1   8724709  ultralytics.nn.modules.Detect                [7, [320, 640, 640]]          \n",
            "Model summary: 365 layers, 68159349 parameters, 68159333 gradients, 258.2 GFLOPs\n",
            "\n",
            "Transferred 589/595 items from pretrained weights\n",
            "\u001b[34m\u001b[1moptimizer:\u001b[0m SGD(lr=0.01) with parameter groups 97 weight(decay=0.0), 104 weight(decay=0.0010078125), 103 bias\n",
            "\u001b[34m\u001b[1mtrain: \u001b[0mScanning /content/datasets/test-1/train/labels... 36 images, 0 backgrounds, 0 corrupt: 100% 36/36 [00:00<00:00, 1484.01it/s]\n",
…
